model.pth (torch, 371273 bytes, 4 tensors)

conv1.bias f4 [64]
000000 bc 67 27 3e e1 3b e9 3d dc 3d a6 3d ac 69 47 3e
       0.16348165 0.11388374 0.081172675 0.19473904
000010 37 65 22 3e 4e 7c 20 3e 8c c2 ee 3d 2b a3 53 3e
       0.15858923 0.15672418 0.116582006 0.20667712
000020 e6 ab e6 3d 84 76 fb 3d 08 a5 d2 3d 84 7f 1b 3e
       0.11263256 0.122784644 0.102853835 0.15185362
000030 55 f1 d6 3d 6b 89 4b 3e 9b aa dc 3d 07 02 3e 3e
       0.10495249 0.1987664 0.10774728 0.18555461
000040 ff a8 d9 3d 77 d5 d1 3d 9c 23 68 3e 37 4f 49 3e
       0.106279366 0.10245793 0.22669834 0.19659124
000050 22 4e 17 3e 2c 9d 19 3e f1 bc b7 3d a1 81 fc 3d
       0.14775899 0.15001363 0.089715846 0.12329412
000060 bb 87 3e 3d 49 b1 b6 3d 31 a0 d0 3d 83 4b b1 3d
       0.04651616 0.08920533 0.10186804 0.08656981
000070 00 25 f2 3d 31 ec dd 3d 1f c4 fe 3d a1 5a 7b 3d
       0.118234634 0.108360656 0.12439751 0.061365727
000080 98 27 b9 3d 0c be 07 3e 45 e3 2f 3e 31 b7 2f 3e
       0.09040755 0.13256091 0.1717654 0.17159726
000090 7e a9 b3 3d 43 18 51 3e 03 02 c4 3d 34 1a 38 3e
       0.087725624 0.20419411 0.09570696 0.17978746
0000a0 9b e7 3d 3e db 52 03 3e a3 5b 2f 3e da ee 2b 3e
       0.18545382 0.12824576 0.171248 0.16790333
0000b0 41 04 40 3e 86 60 74 3e 9f 7f 24 3e 0d c3 3b 3e
       0.18751623 0.23864946 0.16064309 0.18336125
0000c0 19 5e 46 3e f9 0c 35 3e a0 18 20 3e 0e c5 ce 3d
       0.19371833 0.1768073 0.15634394 0.10096179
0000d0 74 a8 58 3e 41 ab d2 3d 88 88 d7 3d 60 b3 36 3e
       0.2115801 0.1028657 0.10524088 0.17841864
0000e0 a1 4b 0e 3e 5c 04 0f 3e 35 c2 9e 3d b7 3f 16 3e
       0.13896038 0.13966507 0.07751886 0.14672743
0000f0 d1 71 32 3e 0c b1 23 3e 30 21 16 3e b4 fe 94 3d
       0.1742623 0.15985507 0.14661098 0.07275143

conv1.lin.weight f4 [64, 1433]
000000 3f 2e a3 3c 0f a9 5e bd 10 e3 be 3c 6d 2c ae 3a
       0.019919513 -0.054360446 0.023301631 0.0013288386
000010 29 a9 70 bd c3 99 98 bc af 14 21 3d b5 84 5d bc
       -0.058755074 -0.018628007 0.039326366 -0.013520409
000020 c1 b4 57 3b 4f 43 9b 3b ee e6 79 bb 14 cf c7 3b
       0.0032914134 0.0047382484 -0.003813203 0.0060976837
000030 c0 61 3e 3d 84 85 30 bd 40 84 2e bc 95 be 08 3c
       0.04647994 -0.04309608 -0.010651648 0.00834622
000040 5a d0 79 bb c6 b6 41 3b f6 f5 7d 3c 5d 86 df bb
       -0.0038118572 0.0029558404 0.015500536 -0.0068214373
000050 c7 d3 73 31 8b f6 8d 3b 90 31 5a ba 32 b7 8d bc
       3.5481535e-09 0.0043323687 -0.00083234254 -0.017299268
000060 06 2e 48 bc f1 26 6a 3d 0b d7 8a 3d d0 25 2b bc
       -0.012218004 0.057166044 0.067792974 -0.010446027
000070 94 5c 3a bc b6 81 05 3c 34 bc 1c bc f5 71 f8 bb
       -0.011374611 0.008148601 -0.0095663555 -0.007581944
000080 db f3 a6 bb da b2 0e ba ae fb 74 bc 4a aa fe 3b
       -0.005094988 -0.0005443521 -0.014952583 0.007771765
000090 28 0b 9e 3c 6f ff f0 bb a6 5a 53 bc 17 1f 87 bc
       0.01929243 -0.007354669 -0.01290003 -0.016494317
0000a0 b9 21 b2 bc ef eb 8a 3c 97 1f 95 ba da 05 8a 3b
       -0.021744596 0.016958205 -0.0011377212 0.0042121233
0000b0 8c 2a de 3c 59 86 a2 3a 6a 2f 87 ba b8 42 22 bb
       0.027119897 0.0012399658 -0.0010313813 -0.0024759006
0000c0 54 ec f7 bc 80 20 70 39 46 8e bd bc aa cc 38 3e
       -0.030264057 0.00022900291 -0.02313913 0.18046823
0000d0 69 bf 9a bd ae 9d d7 bb 9e 5f 30 3c 10 b6 06 3c
       -0.0755604 -0.006580076 0.010764984 0.008222118
0000e0 e8 03 17 3d bc e3 6f bc 44 c7 a2 3c 83 01 26 bd
       0.03686896 -0.014641698 0.019870408 -0.040528785
0000f0 2d 13 b1 b1 f3 e5 c9 bc ad eb d9 3c 64 d1 35 3d
       -5.153558e-09 -0.024645781 0.026601637 0.044389144
000100 0c b5 fc 39 d8 e7 e8 ba ff 65 ff bc 7c f4 ac bb
       0.00048200076 -0.001776929 -0.031176565 -0.0052781682
000110 55 08 70 3c 9d 30 a3 bc 85 fb 6e bc 54 80 dc ba
       0.014650424 -0.019920642 -0.014586334 -0.0016822913
000120 5b 75 8c bc 80 e2 bd bc cf 79 0b bd a7 0b d3 bc
       -0.017145803 -0.023179293 -0.034051713 -0.025762392
000130 96 98 95 bc cb 95 d8 3d da fa 1f 3c 69 dc 62 bb
       -0.018261235 0.10575446 0.0097643975 -0.0034616238
000140 9c 0e c8 bc 60 9c 9c 3c 88 8c dd bb 55 d6 d8 bb
       -0.024421029 0.019117534 -0.0067611374 -0.0066173472
000150 ca cb 80 bc e5 2d 19 bd 16 03 b1 bb 36 65 6a 3c
       -0.015722174 -0.037397284 -0.005401979 0.014306357
000160 86 66 4a 3d 96 1c 62 3d 1e ce 03 3c 9f ca 05 bd
       0.04941418 0.055203043 0.008044748 -0.032663938
000170 25 55 b7 3c 4e 37 c3 3b 06 7b e9 bc 12 42 97 3c
       0.022379467 0.0059575206 -0.028501045 0.018464122
000180 82 f6 59 3c 17 2c 0a bd c4 9e c5 3c 96 6b 2f 3e
       0.013303401 -0.033733454 0.024123557 0.17130885
000190 5a 0e b4 3c 51 6a d4 bb 3c 80 4c 3d ba 43 b3 bc
       0.0219795 -0.0064824005 0.04992698 -0.02188288
0001a0 a1 c9 d3 3c 61 74 ca b9 51 d4 45 bc da c9 11 bd
       0.02585298 -0.0003861515 -0.012074546 -0.03559289
0001b0 c2 ef 77 bd 81 b0 d1 bc 13 78 9f bb fc 7a af 39
       -0.060531385 -0.025596859 -0.004866609 0.00033470232
0001c0 fa f7 77 bc 57 9a 84 3b 34 a8 13 bc 52 a0 4f 3b
       -0.015134806 0.004046719 -0.009012271 0.0031681252
0001d0 ac 74 d4 bc a3 07 87 bc 17 3a c4 3d cf d4 1f bc
       -0.02593454 -0.016483134 0.09581392 -0.009755327
0001e0 9b ed ed bc d3 6b b2 3b 19 5a df 3c 8c 6e bc ba
       -0.029043963 0.0054449826 0.027264642 -0.0014376207
0001f0 62 51 1d bd 35 f0 57 3d 81 20 d0 3c b7 03 f3 3c
       -0.03840769 0.052719314 0.025406124 0.029664857
000200 e3 13 02 3d 05 e3 d8 3c a7 08 31 bd da 83 96 3d
       0.031757247 0.026475439 -0.043221142 0.073493674
000210 b5 e5 e2 b9 9b 51 d9 3c a1 83 31 bb 92 6e cf 3d
       -0.00043277224 0.02652817 -0.0027086514 0.101285115
000220 78 be 11 bd 93 29 29 bc 06 75 8d 3c 5b e6 5f bc
       -0.035582036 -0.0103248535 0.017267715 -0.013665761
000230 51 9c c8 3d 16 93 5e bc 75 78 8c 3c 17 e8 6d bc
       0.0979544 -0.013584873 0.017147282 -0.014520667
000240 e2 64 2a bb 40 5b 07 b0 2d 96 43 3d 55 39 c7 bc
       -0.0026000072 -4.924239e-10 0.04775064 -0.02431933
000250 f5 74 c1 bb 95 be c6 bc 40 71 ac 3b ba 3f 2f bd
       -0.005903835 -0.024260798 0.005262524 -0.042785384
000260 24 f2 8c 3c 66 95 72 3d f9 3a 01 3c 4e 4c 5f 3c
       0.017205305 0.05922451 0.007887595 0.013629032
000270 ec 15 9c bc 95 e2 bb bc 89 b6 6a 3c c8 d0 8b 3c
       -0.019053422 -0.022935191 0.014325746 0.017067328
000280 7d 91 4c bd 43 2d 6f 3c fc ed 06 3d db c8 56 3b
       -0.049943436 0.014598194 0.032941803 0.0032773528
000290 b1 51 60 3b 90 6a ea 3a f4 e3 11 bd 02 46 73 3c
       0.003422838 0.0017884541 -0.035617784 0.014848234
0002a0 2d d7 e7 bd 01 39 23 3c 20 31 52 bb e5 b1 15 3c
       -0.113203384 0.009962321 -0.0032072738 0.009136652
0002b0 fa d4 24 3d fe ba a7 bc 42 ce 02 bd b1 ff 99 bb
       0.040242173 -0.020474907 -0.031934984 -0.0046996702
0002c0 90 1b c9 bc e1 21 0a bb 2a dc 08 ba 8c 2a 23 3d
       -0.024549276 -0.0021077322 -0.0005220795 0.039835498
0002d0 3c 46 d2 bb 96 0e b4 3c 58 c2 8f bc 14 b0 d6 3a
       -0.006417064 0.021979611 -0.017548725 0.001637938
0002e0 9e 8d da bb 03 9d 93 3b 61 db a6 3c f4 b5 f2 bc
       -0.006669714 0.0045048012 0.02036828 -0.029627778
0002f0 55 32 4e bc fc 05 9d bc 5e 51 bd 3b 93 dd 29 bc
       -0.012585242 -0.019167893 0.005777522 -0.010367769
000300 49 48 ae 3a a4 c0 29 bb c4 cd 18 3b 90 b1 21 bc
       0.0013296689 -0.0025902176 0.0023316005 -0.009868994
000310 2c bd 3a bd 2c 56 e4 3c a0 3c f6 ba e6 47 0a bc
       -0.045590565 0.027873121 -0.0018786378 -0.0084399935
000320 0f 95 4e ba d9 7f 1e bc 74 7c 89 3b a7 aa 5d 3d
       -0.0007880488 -0.009674036 0.004195744 0.054117825
000330 dc ae 0c bb ac 3a 79 3d 6f a2 1e bc 0a bb f8 bc
       -0.002146653 0.06084697 -0.009682282 -0.030362625
000340 6d 32 77 bd 7b 17 8f bb 7a c5 43 bb 95 fc ca 3d
       -0.060350824 -0.0043668128 -0.0029872344 0.099114574
000350 18 d7 55 bc 93 d0 b3 3a 5d cf b5 3c 46 85 b1 3c
       -0.013051771 0.0013718776 0.022193605 0.021669995
000360 e7 02 3d bc ba e8 4b bd e1 6a 8b bc a9 f3 b5 3c
       -0.0115363365 -0.049782492 -0.017018737 0.022210913
000370 3d aa 99 3c ac c5 fc 3b bd b9 b4 3c 46 0d ec bb
       0.018757934 0.007713994 0.022061223 -0.0072037308
000380 6b 7b 29 3c c0 44 31 3c 41 c0 18 3c 30 b7 11 ba
       0.010344367 0.010819614 0.009323181 -0.0005558608
000390 46 1b a2 3c e1 86 6f 3c 59 ce 74 bc a2 41 04 bd
       0.019788396 0.01461956 -0.014941775 -0.032289155
0003a0 cb f7 af 3c a0 c2 5c 3d 3c 44 9b 3a ff 58 1a bc
       0.021480462 0.053896546 0.0011845897 -0.009420632
0003b0 66 cd 89 3b 6d a0 56 3d ab b9 03 3d 20 a3 e8 b8
       0.0042053936 0.052399088 0.03215949 -0.000110930065
0003c0 7e b8 a7 ba 57 08 45 3b c1 a0 4c bb a1 f1 d4 ba
       -0.0012796072 0.0030064785 -0.0031223746 -0.0016246327
0003d0 31 b6 9e 3c ca a4 f1 3c 02 c9 91 3b c7 ba 15 3d
       0.019373985 0.029497523 0.004449011 0.036555078
0003e0 40 91 2e bc 3f 46 ae bc 3f 71 de bb 54 30 e5 bc
       -0.0106547475 -0.02127373 -0.0067884023 -0.027977146
0003f0 e8 4c 53 b9 f2 27 d6 3c 06 81 9f bc 73 6b d3 3c
       -0.00020151178 0.026142094 -0.019470703 0.025808072

conv2.bias f4 [7]
000000 73 63 86 be 4b 39 0d 3e f3 e4 5f 3a 2e c1 41 be
       -0.2624775 0.13791387 0.0008540891 -0.18921348
000010 3e 66 58 3d 1a be a5 3e d8 6f 8c be
       0.05283188 0.32371598 -0.2742908

conv2.lin.weight f4 [7, 64]
000000 24 1d dc 3e a6 18 90 3e 6e 78 d2 3e ed 92 09 bf
       0.42990983 0.28143805 0.41107506 -0.53739816
000010 79 62 d1 3e 50 f7 e4 3e 81 81 93 3c 8a c9 cc be
       0.4089544 0.44719934 0.018006088 -0.39997512
000020 46 8c b5 be 94 7f 96 3e fa 8b 1b 3f 5c d7 09 3f
       -0.35458583 0.2939421 0.6076046 0.5384424
000030 8d 72 05 3f de 05 00 bf b7 51 cd 3c 40 5a 27 bf
       0.52127916 -0.5000895 0.025063379 -0.65372086
000040 2c e5 42 be 45 87 e1 be 55 0c 15 bf 41 10 dc be
       -0.19032735 -0.44048515 -0.5822194 -0.4298115
000050 2c de ec be ba 9b 20 3f 4f db 15 3f cf 87 c4 be
       -0.46263254 0.6273762 0.58537763 -0.38384864
000060 45 c2 3d 3f 94 60 5a be 01 43 d2 3e cc 1b 1c 3f
       0.74124557 -0.21325904 0.41066745 0.60979915
000070 ef f9 3e 3e f7 e8 f5 be a1 5f fd be 9d dc 32 3f
       0.1865003 -0.480293 -0.49487022 0.6986788
000080 de 44 81 3e b1 45 1c 3f 31 f2 ee 3e e2 05 0c 3f
       0.25247854 0.6104384 0.46669152 0.54696476
000090 30 18 2e 3f 32 63 0a bf f6 54 28 3f 2f dc 06 bf
       0.6800566 -0.5405761 0.6575464 -0.52679724
0000a0 a7 6b e7 be cd 45 9e be eb 1b 1b be aa 5b 17 bf
       -0.4519932 -0.3091263 -0.15147369 -0.59124243
0000b0 81 51 e6 be ce 19 11 bf c7 c2 25 bc a5 4f fe be
       -0.44984058 -0.5668 -0.010117239 -0.4967014
0000c0 a9 20 77 be 55 a5 c4 3e 07 1f ea be 28 68 ac be
       -0.24133553 0.38407388 -0.45726797 -0.33673215
0000d0 3f 02 13 bf ea cc c2 be 67 f6 9c 3e 1c 43 e4 3d
       -0.574253 -0.38046962 0.3065674 0.111456126
0000e0 13 7c ec 3e 60 66 00 3f f6 6c 97 be 3e 56 fe be
       0.4618841 0.5015621 -0.29575318 -0.49675173
0000f0 4c c5 10 bf 01 88 12 bf 38 c9 94 3d c8 bf 1c be
       -0.5655105 -0.57238775 0.07264942 -0.15307534
000100 4f 0a ea be 55 fd 05 bf 55 6b f0 be 25 df cc be
       -0.4571099 -0.5233968 -0.46956888 -0.40013996
000110 88 fa c8 be 08 85 f9 be f7 78 de 3e c7 44 07 bf
       -0.3925364 -0.48734307 0.43451664 -0.5283932
000120 d4 39 92 3e 59 cb 0d bf c3 2d 88 3e b2 cb 95 3e
       0.28559744 -0.5538841 0.26597413 0.2925697
000130 7e d0 ff be a6 f6 c1 be 67 3d a3 be 31 9c 24 3e
       -0.49963754 -0.3788349 -0.31882784 0.16075207
000140 f9 1d 01 3f 36 27 0c 3f db 5e f6 be d7 89 eb be
       0.5043636 0.5474733 -0.48119244 -0.460036
000150 7d 1d b0 be 34 93 e0 be 63 b9 ce 3e d0 f5 a0 be
       -0.34397498 -0.43862307 0.40375814 -0.3143754
000160 61 7b 96 3d 63 ff 92 3e 5d 6d 08 3f f9 1e fd be
       0.073477514 0.2871047 0.53291875 -0.49437693
000170 82 43 01 bf e5 d0 8e 3e 11 75 b8 be ec 53 d0 be
       -0.50493634 0.2789375 -0.36026815 -0.40689027
000180 e0 dd c9 be 19 61 d6 3e ae f5 63 3e 3f 76 cd 3e
       -0.3942709 0.41870955 0.22261688 0.40129277
000190 48 d5 dc be 1d 5d 60 3e b9 45 dd be d0 e2 e2 be
       -0.4313147 0.2191052 -0.43217257 -0.4431367
0001a0 c6 31 a1 be 4a a5 fb be f2 92 03 3f ef 92 14 3f
       -0.31483287 -0.49149543 0.51396096 0.580367
0001b0 a2 6b b3 3e 6f b6 91 3e 9e fa 9f 3e 63 18 88 3e
       0.35043055 0.28459498 0.31245893 0.26581106
0001c0 40 af ee be bf 0d ea be 71 ec ce be 77 87 ad be
       -0.4661808 -0.45713612 -0.40414765 -0.33892414
0001d0 85 8e 73 3e 3e 19 04 3f 38 12 b9 3e 3f 22 a6 be
       0.23784836 0.51601017 0.36146712 -0.32448003
0001e0 2b c4 a1 3e 1e 78 8c be 1f 66 f1 3e 18 df e5 3e
       0.31594977 -0.27435392 0.47148225 0.4489677
0001f0 8f b8 cb 3e 65 90 0c bf 8b a9 98 3e 69 2b 0c 3f
       0.39789245 -0.5490783 0.2981685 0.5475374
000200 a7 d6 a0 3e a5 49 17 be fd 68 d2 be 68 4b d1 be
       0.31413767 -0.14774187 -0.41095725 -0.40877843
000210 c3 68 a4 be 0f dd ea be 9c 54 be be 79 cd df 3e
       -0.32111177 -0.4587178 -0.37173927 0.4371145
000220 d1 a2 f4 3e ed 8a 01 bf 76 0e d7 3e e4 41 b7 3e
       0.4778047 -0.5060261 0.4200322 0.35792458
000230 30 94 e4 be b6 f0 b7 3e 9d 97 f4 3e 31 d5 a0 be
       -0.44644308 0.35925835 0.47771922 -0.31412652
000240 3e 4c 60 be 45 4d b7 3e 4b b9 d2 be 38 6b 9e 3e
       -0.21904084 0.3580114 -0.41156992 0.30941176
000250 28 c8 a1 be 15 7e bb be ed 28 bd be 56 3b 97 be
       -0.3159802 -0.3661963 -0.36945286 -0.29537457
000260 f7 61 b9 3e e2 48 5f 3e 07 1a ef be f0 e0 d7 be
       0.36207554 0.21805146 -0.46699545 -0.421638
000270 6f ef 04 3f a1 e2 c3 3e 15 27 ed 3e c8 21 ff 3e
       0.51927847 0.38258842 0.4631888 0.4983046
000280 21 0b 16 3f 4f 1f c4 be 1e ff de be fe 1c b0 be
       0.5861073 -0.38305137 -0.43554014 -0.3439712
000290 40 35 e2 3e 68 ef c5 be 51 68 8a bd fe 59 f0 3e
       0.44181252 -0.38659215 -0.06758178 0.4694366
0002a0 b4 dd 67 be 56 a4 0a 3f b4 7c c7 be 83 10 c8 be
       -0.22643167 0.54157007 -0.38962328 -0.39075097
0002b0 ae 11 a7 be 11 aa e5 3e 50 29 e3 be bd 42 f2 3e
       -0.32630676 0.44856313 -0.44367456 0.47316542
0002c0 a0 40 04 3f aa dd db be 99 4f c0 be eb 71 0a 3f
       0.5166111 -0.42942554 -0.37560728 0.54080075
0002d0 8c 86 10 bf 82 86 8d be 9f 9f a0 3d 63 8e 78 3e
       -0.564553 -0.27641684 0.07842945 0.24273066
0002e0 c2 61 b5 be b6 f4 f9 be dc 5e d0 3e bb a2 de be
       -0.35426146 -0.48819512 0.40697372 -0.43483528
0002f0 1f bc cf 3e 3b 06 ad 3e e8 a0 56 3e 1d f3 86 be
       0.40573213 0.33793816 0.20959818 -0.26357356
000300 e4 4e 0a bf 6f a0 13 bf 0c d3 a7 be b1 90 2f 3f
       -0.5402663 -0.5766668 -0.32778203 0.68580157
000310 c6 9a e6 3e e5 30 06 3f 98 48 da 3e 7b 68 63 bd
       0.45039958 0.5241836 0.4263351 -0.055519562
000320 18 c7 c4 be 76 78 f3 3e cb 57 ce 3e 1a b6 09 bf
       -0.38433146 0.47552842 0.40301356 -0.5379349
000330 b9 9f 94 3e cd b5 e8 3e 4a 5b 18 3f 0d 37 e4 3e
       0.2902811 0.45451203 0.59514296 0.4457325
000340 92 51 55 be c9 08 db be 52 e5 15 3f e9 99 c7 3e
       -0.20831898 -0.4278014 0.5855304 0.38984612
000350 54 b7 ca be f8 6e 82 3e bd 99 d8 bd e7 33 b6 3e
       -0.39592993 0.25475287 -0.10576198 0.35586473
000360 48 38 00 bf 08 c3 e9 be 9d f1 a6 3e d1 b6 08 bf
       -0.5008588 -0.4565661 0.3260621 -0.53403956
000370 8e a6 1c 3f 00 e3 a7 be 4e e6 e6 be 0b e0 f1 be
       0.6119164 -0.32790375 -0.45097584 -0.47241244
000380 54 d5 d6 be 89 65 dc be 75 a2 d2 3e 85 e3 16 bf
       -0.4195963 -0.43046215 0.4113957 -0.5894092
000390 b2 ac b5 be 85 c8 0c 3f f4 d1 01 3e fb 70 02 bf
       -0.3548332 0.5499347 0.12677747 -0.50953645
0003a0 74 97 3f be af 18 1e 3f 55 98 24 bf 0a ca af be
       -0.18710119 0.61756414 -0.6429494 -0.3433383
0003b0 b8 ee 1d bf c1 e4 ad 3e 84 1d da 3e 5c 86 e1 3e
       -0.6169238 0.33963588 0.42600644 0.4404782
0003c0 05 f3 04 bf 51 48 11 3f f2 66 0a 3f 56 64 d2 be
       -0.5193332 0.5675097 0.5406333 -0.41092175
0003d0 be 03 21 3e 25 93 e6 be 93 99 13 bf 05 07 c8 be
       0.15724084 -0.45034137 -0.5765621 -0.39067855
0003e0 f1 d8 bf 3e e4 b8 12 bf 67 de 85 be 2d 6d d2 3e
       0.374702 -0.5731337 -0.26146242 0.4109892
0003f0 d5 a4 08 3f ed d1 d9 be 69 01 a9 3e 53 c3 93 be
       0.53376514 -0.42542973 0.33008888 -0.28859958
