model_uncert.pth (torch, 371599 bytes, 4 tensors)

conv1.bias f4 [64]
000000 a2 43 0d 3e eb ff 16 3e 02 85 07 3e f7 20 34 3e
       0.13795331 0.14746062 0.13234332 0.175907
000010 7c 5d a4 3d 81 4f 14 3e 45 13 33 3e 48 14 d8 3d
       0.08025643 0.14483453 0.1748782 0.10550743
000020 13 61 ee 3d a3 d8 29 3e e4 2f e7 3d e7 b9 12 3e
       0.11639609 0.16586547 0.11288431 0.14328729
000030 4f f0 a9 3d 01 51 e6 3d 6c 89 2c 3e d5 2b a1 3d
       0.08297788 0.11245919 0.16849297 0.078696884
000040 ae 5f 35 3e a8 f6 2d 3e 20 7c 0d 3e 85 28 e5 3d
       0.1771228 0.16988623 0.13816881 0.11189369
000050 03 b8 3a 3e 22 d1 ea 3d 68 9c 23 3e 54 5c ff 3d
       0.18234257 0.1146567 0.15977633 0.12468782
000060 c0 e2 a5 3d df ca 18 3e 0f 6f 2b 3e 7e 73 0e 3e
       0.0809989 0.14921139 0.16741584 0.13911244
000070 c5 2d 02 3e 14 f2 ec 3d b0 ae 59 3e 6e 28 3d 3e
       0.12712772 0.1156961 0.21258044 0.18472454
000080 fa a1 ed 3d e2 44 83 3e 4c 44 02 3e f0 ce e5 3d
       0.1160316 0.2563849 0.12721366 0.11221111
000090 31 91 de 3d c7 12 13 3e 5f 50 1e 3e 75 04 16 3e
       0.10867537 0.14362632 0.15460347 0.14650138
0000a0 b5 4c 0f 3e bf 1a 30 3e 66 f8 01 3e d0 01 f3 3d
       0.13994105 0.17197703 0.12692413 0.1186558
0000b0 a1 fe e3 3d 21 3f dd 3d 3a cd 1d 3e 50 27 14 3e
       0.11132551 0.108030565 0.15410319 0.14468122
0000c0 46 8a 24 3e e2 ef d3 3d f7 e7 07 3e 4e 82 ac 3d
       0.16068372 0.103484884 0.13272081 0.08423291
0000d0 b4 34 14 3e 2d f1 0e 3e 05 93 39 3e 94 26 14 3e
       0.1447323 0.13959189 0.1812249 0.14467841
0000e0 46 44 42 3e 75 ea 3f 3e fb 73 3a 3e dd b7 b6 3d
       0.18971357 0.18741782 0.18208306 0.08921788
0000f0 1c cb 1a 3e ef 08 3f 3e 5f 5e fe 3d e8 da 10 3e
       0.15116543 0.18655752 0.124203436 0.14146006

conv1.lin.weight f4 [64, 1433]
000000 0f be 33 bc 33 2f 6e 3d 89 48 24 bd ed ca ca b9
       -0.0109706065 0.05815048 -0.040108237 -0.00038679634
000010 62 77 3b 3e 97 e6 8d 3c 57 ef 31 bd c6 13 e7 3b
       0.1830726 0.017321868 -0.043441143 0.0070519177
000020 68 02 c8 3b 59 9a 91 ba 02 6d 11 3b b2 15 27 bb
       0.0061038025 -0.0011108621 0.0022190218 -0.002549511
000030 59 1a 71 3c f2 64 aa 3c 22 34 30 3c 5c 85 ff 3c
       0.014715754 0.020800088 0.010754617 0.03119152
000040 a9 c9 85 3c 6b ff 40 bc b8 28 20 3b 6c 74 4b 3e
       0.01633151 -0.011779646 0.0024438333 0.1986863
000050 8a ea 69 35 04 89 d7 bc ea 9b e9 3b b8 f8 b7 3c
       8.7140563e-07 -0.026310451 0.007129182 0.022457466
000060 6e 32 c9 bb c9 de ec bc 4e 7c 90 3c a8 ab 0b 3d
       -0.006140045 -0.028914826 0.017637398 0.03409925
000070 2a 42 60 3d 96 8d e7 bc 51 25 1f bd 13 a7 85 3c
       0.0547506 -0.028265756 -0.038853947 0.016315019
000080 f0 6c 1b 3c 62 ff c8 38 0c 8f aa 3c 0f c8 02 3c
       0.009486422 9.584312e-05 0.020820163 0.007982268
000090 38 c4 9f b9 4a d1 51 b9 3e 0b 1e bd 88 dd 24 3d
       -0.00030473038 -0.0002000976 -0.03858494 0.04025033
0000a0 24 f2 59 3d e2 14 42 3d 38 1a 44 bc db 7b 3c 3c
       0.05320944 0.047383197 -0.011969142 0.011504139
0000b0 74 aa 26 bc ad de 29 bc f2 bb 8c ba ea 27 06 3d
       -0.010172475 -0.010368031 -0.0010737164 0.03275291
0000c0 7a 53 82 3d 61 37 88 bb d9 c0 58 3b 35 69 ca 3c
       0.06363578 -0.0041569923 0.003307393 0.02470837
0000d0 43 4d ae 3d 3b 43 c4 3b 8e fc 5f bc 6a ac da 3b
       0.0851083 0.00598946 -0.013671054 0.0066733854
0000e0 62 eb 29 bd ce b7 b5 3c 71 b6 bf 3c ac 54 80 3d
       -0.041484244 0.022182371 0.023402425 0.0626615
0000f0 c0 d1 16 b2 07 b8 8e 3d ce d4 0b bd e3 88 94 bd
       -8.778841e-09 0.06968694 -0.034138493 -0.072526716
000100 93 7a b8 3c 2e 65 4a bd da ca 9a 3a 01 e5 03 3d
       0.022519385 -0.0494129 0.0011809722 0.032200817
000110 2b fe 58 3c f0 44 72 bb 06 d6 f6 3b ea bb a7 bb
       0.013244192 -0.003696736 0.007532838 -0.0051188366
000120 23 ba 64 3b fe e1 01 3c 46 12 b9 3a 18 43 d4 3c
       0.0034900985 0.007927416 0.0014119826 0.025910899
000130 c1 e4 3d 3b 51 a3 e9 3b 1f 45 76 3d 3e 88 bf 3a
       0.002897546 0.0071300645 0.060124513 0.0014612747
000140 bb b2 ad 3c 07 60 b6 bc 2b 1b 20 3d 0f d9 4e bc
       0.02120339 -0.022262586 0.03908841 -0.012624993
000150 d1 f8 cb 3b da 93 21 3d cd 6f fa 3c ab ff a9 bb
       0.0062247296 0.039447643 0.030570889 -0.0051879487
000160 38 a5 b0 3c 73 31 20 bd af c9 a8 bb 09 35 14 3d
       0.021563157 -0.03910966 -0.0051509957 0.03618339
000170 75 42 63 3d 8b ba bc 3b 2c 57 30 3d 8a 07 4e 3a
       0.0554833 0.0057595423 0.043051884 0.00078594
000180 8e db 76 bc 3b e0 cf 3b 59 00 09 bd c3 fd 79 bd
       -0.015066994 0.006343869 -0.033447597 -0.06103302
000190 be 6a 05 bc b7 60 5f 3c c4 23 7f bc 6e 87 ff 3c
       -0.008143125 0.013633898 -0.015572492 0.031192508
0001a0 4c fa 21 3d f7 e9 0a 3b c4 89 74 3a 3b 82 0a 3d
       0.039545342 0.0021196583 0.000932839 0.033815604
0001b0 18 3b 81 bb 0e f2 17 3d 4f 62 0d 3c 50 10 08 bb
       -0.003943812 0.037096076 0.008629396 -0.0020761676
0001c0 31 27 24 bc 20 26 ff 33 55 b2 7d ba 67 3d 26 bc
       -0.01001911 1.1881298e-07 -0.00096777576 -0.010146475
0001d0 c1 ad 35 ba b3 fb bd 3a 73 bb 48 bb df 58 87 3b
       -0.00069304934 0.0014494568 -0.0030629307 0.0041304673
0001e0 7e 2e 39 3d 42 0f 6c 3c 1b 21 17 bd ad 27 43 3c
       0.045210354 0.014407935 -0.036896806 0.011911315
0001f0 68 3c 94 3d d3 33 8f 3d 0a ca c0 bc 29 1f 4c bc
       0.07238084 0.069923066 -0.02353384 -0.012458601
000200 e2 fc 8c 3d 04 ab 23 bc 31 c7 c1 bb a3 66 a5 3c
       0.06884171 -0.009989504 -0.005913638 0.020190543
000210 6a 83 0f bd ae ff 92 bb 19 43 0d bc 78 a9 5f 3d
       -0.035037436 -0.004486046 -0.008621954 0.054604977
000220 77 8c a5 3c 3d 2f 3e 3b 0b e1 c5 3b 24 24 72 bb
       0.02020858 0.0029019855 0.00603879 -0.003694781
000230 65 03 93 bd 8f e7 61 3c 27 3b bf bc 18 8c 01 3d
       -0.07178382 0.013788118 -0.023343636 0.031627744
000240 a8 a2 f2 b9 03 b8 fd 34 02 0c ad bc 69 f7 11 bc
       -0.00046279025 4.7258808e-07 -0.02112389 -0.008909085
000250 20 a5 80 ba 8d e3 d7 bc f1 22 6d 3b a9 bb d3 3d
       -0.0009814836 -0.026353622 0.0036184157 0.10338528
000260 ea 77 69 bc 7a 1e 4d b9 1d f6 f7 3b 9a cb fd 3c
       -0.014249781 -0.00019561677 0.007567181 0.030980874
000270 eb 8f 98 ba c0 38 ed 38 7f 5b ec b9 14 e3 91 bb
       -0.0011639571 0.00011311611 -0.00045081598 -0.0044521187
000280 e2 e1 23 3d d3 86 d0 bc 1a 99 b2 3c 65 05 96 b6
       0.04001034 -0.025454914 0.02180152 -4.4709764e-06
000290 22 e8 c7 b9 bc 45 d4 bb 9c 0c 04 3d a0 c8 56 bc
       -0.0003812919 -0.0064780395 0.032238588 -0.013109356
0002a0 90 6d 97 b9 b1 a8 38 3c d3 df a3 3c 5e 17 69 3a
       -0.00028882595 0.011270688 0.020004189 0.00088917266
0002b0 ce 9c 93 bb 05 fc 3c 3d 8a ad 9b 3c 3d 22 26 bc
       -0.0045047766 0.046138782 0.019003648 -0.010139999
0002c0 d5 2a 63 3d fc 6f ee 3c 6d 8b f3 bb a1 7c ab 3c
       0.05546077 0.029106133 -0.0074323923 0.020933451
0002d0 5c 8b 34 ba f3 06 3b bc e4 f1 0c 38 ec a2 12 bb
       -0.0006887221 -0.011415231 3.360388e-05 -0.002237494
0002e0 f9 37 c0 3b 04 e4 ac 35 c6 30 a9 bc 68 f6 23 bc
       0.0058660475 1.288136e-06 -0.02065314 -0.010007478
0002f0 de 19 a6 3c 09 41 18 3c 69 32 b5 bc 84 c4 12 bc
       0.020276006 0.009292849 -0.022118764 -0.008957986
000300 0a 75 ce 3c c3 0c da ba 42 c7 cf bb c3 4f 66 bc
       0.025202293 -0.0016635883 -0.006340892 -0.014057103
000310 83 c2 3d 3c f0 b0 11 bc 67 80 12 3b ad d1 60 3a
       0.01158202 -0.008892283 0.0022354366 0.0008576166
000320 47 98 af bc 59 b0 59 3b fd 8f b5 bb dd a1 0f bd
       -0.021434916 0.0033216684 -0.0055408464 -0.035066474
000330 7c 40 01 bb ba df a0 3b 13 18 52 3c af e2 be 3c
       -0.0019722274 0.004909483 0.012823123 0.02330145
000340 19 1f 0a 3d 08 e5 3d 3a 1c 70 62 3c d2 06 6b bd
       0.033721063 0.0007243906 0.013820674 -0.05737955
000350 48 d7 41 bc e8 ac 66 3c 5c 20 1b bb e8 a6 be bb
       -0.011831112 0.01407931 -0.002367041 -0.0058182366
000360 aa 1c 67 3c fc e9 19 3d 1c 45 bd 3c 79 12 f6 bb
       0.014105955 0.03757666 0.023104243 -0.0075095263
000370 9b d5 85 bb d7 14 81 bb 47 71 ca bb 90 b1 11 3c
       -0.0040843016 -0.003939252 -0.0061780545 0.008892432
000380 04 a1 a1 b9 d3 db 86 3c 21 7d 78 3c 9f 9c ea 3b
       -0.0003082828 0.016462242 0.015166552 0.007159784
000390 ec 70 0a bc 8d b2 3a 3b 74 71 49 3c d4 a4 20 3d
       -0.008449774 0.0028487772 0.012295116 0.039219692
0003a0 5a 66 6f 3c 5d de 4c bd bc 68 21 3c 8e bc 78 bc
       0.014611805 -0.05001675 0.009851631 -0.015181674
0003b0 67 01 84 3c d6 a7 3d bd d0 9f d9 3c 95 78 cc 3c
       0.01611395 -0.04630264 0.026565462 0.024959842
0003c0 fa 7c ed 3a 80 57 59 bc af 75 ce 3a 45 77 05 bb
       0.0018118911 -0.0132654905 0.0015751625 -0.002036528
0003d0 13 67 5e 3c ea 9c ef bc 06 ce e6 3a da af 2c bc
       0.0135743795 -0.029249627 0.0017609007 -0.010539973
0003e0 56 85 ac 3a f0 e4 38 ba ce 30 91 bc 90 52 97 3b
       0.0013162296 -0.00070531573 -0.017723467 0.0046179965
0003f0 6e ff 7f bc 16 25 5b bb 0d 37 47 3a 91 a1 58 bc
       -0.015624864 -0.0033438853 0.0007599451 -0.013222114

conv2.bias f4 [7]
000000 1f 40 86 3c 6e 15 10 be 44 24 5d 3e 69 b2 83 bd
       0.016387997 -0.14070675 0.21595865 -0.064305134
000010 08 0d dc bd 6c 9d 7d 3e 43 9c 67 be
       -0.10744673 0.24767083 -0.22618203

conv2.lin.weight f4 [7, 64]
000000 4d 14 f2 be 07 6d d4 be 51 fc d4 3e 09 f8 9a 3e
       -0.47281113 -0.4148943 0.41598752 0.3026736
000010 3d 9c 3e 3e 19 dc 98 3e b2 71 05 bf b6 17 f8 be
       0.18614288 0.2985542 -0.5212661 -0.4845559
000020 22 f6 1f 3e 80 00 81 be ae ff d9 3e 68 ec d5 3e
       0.15621236 -0.25195694 0.4257788 0.41781926
000030 a3 80 ce 3e a5 2c b6 be 50 2e f9 be cc f4 df be
       0.40332517 -0.35580936 -0.48668146 -0.43741453
000040 fd 83 88 3e b7 4d d8 be e1 72 b5 3d 29 c9 dd 3e
       0.266632 -0.42246792 0.08859802 0.43317536
000050 d5 d5 09 bf 79 fb 09 3f aa 90 f6 be f7 84 a1 3e
       -0.53841907 0.5389934 -0.48157245 0.31546757
000060 e2 21 a2 3d 98 3b 2e bf ce 4d d2 3e ea 0b 1b bf
       0.07916619 -0.6805968 0.41074985 -0.60565054
000070 b5 c7 1e be 92 1b 0d bf cc e9 00 bf f0 bd 15 bf
       -0.1550587 -0.55120194 -0.50356746 -0.58492947
000080 c6 a8 12 3f a6 b4 09 3e ae 07 ba 3e 05 4d 7b 3e
       0.5728878 0.13447818 0.36333984 0.245411
000090 20 13 c9 be 6f 07 15 bf 29 2b d5 be e5 b3 09 bf
       -0.39272404 -0.5821447 -0.4163449 -0.5379012
0000a0 f4 71 77 3e 43 c5 15 bd 83 60 4a 3e a2 94 e8 3e
       0.24164563 -0.036565077 0.19763379 0.45425898
0000b0 e8 f8 f1 be 1c cb 28 bf 26 72 13 3f 64 e9 32 bf
       -0.47260213 -0.6593492 0.5759605 -0.69887376
0000c0 3d 51 df 3e 7b 1b ce 3e 73 af e9 be e7 41 b5 3e
       0.43616667 0.4025534 -0.4564167 0.35401842
0000d0 f9 b0 f1 3e cf d3 ae 3e 97 08 d4 3e b5 e8 a4 3e
       0.47205332 0.34145972 0.41412804 0.3220879
0000e0 68 af cb 3e 89 7f b8 bd 44 07 2f bf e8 cb dd be
       0.39782262 -0.090087004 -0.6837046 -0.4331963
0000f0 10 d4 9b be 0c d7 05 bf 5c 40 d7 3c 78 03 f1 3e
       -0.30435228 -0.5228126 0.026275806 0.4707296
000100 ba 48 54 be 1a 27 9b be ea 6f b9 3e e5 53 ad be
       -0.20730868 -0.3030327 0.36218196 -0.3385307
000110 e3 7b f1 3e 2b 17 59 3e d7 f8 cd 3e 43 8c 8b be
       0.4716483 0.21200244 0.40228912 -0.2725545
000120 d6 85 41 3e 6e 4a 64 be 2c 32 83 3e aa 07 fe 3e
       0.1889871 -0.22294018 0.25624216 0.49615222
000130 52 f3 e8 be f7 d9 fa 3e 59 93 a7 3c 55 0d 20 3f
       -0.4549814 0.4899442 0.020456003 0.62520343
000140 f7 b3 2e be 46 d3 05 bf 72 c6 11 3f ef be d8 be
       -0.17060839 -0.522755 0.5694343 -0.4233317
000150 b5 9c e3 3e 3c e0 a4 3e 52 98 a5 3e a9 26 c2 be
       0.44455495 0.32202327 0.32342774 -0.3792012
000160 cc 8c be 3e 76 00 b2 be bc 76 f0 be 46 02 04 3f
       0.37216794 -0.34765977 -0.46965587 0.5156597
000170 98 82 a7 3e f1 9e 06 3f d7 ef af 3e d2 a5 a6 be
       0.32716823 0.52586275 0.3436267 -0.32548386
000180 7c 47 a5 be 22 1d 05 bf 83 51 fa be c4 c4 f7 be
       -0.322811 -0.5199758 -0.48890314 -0.48392308
000190 06 99 8a be d1 06 e1 be 4c 50 b1 be 22 73 8d be
       -0.27069873 -0.43950513 -0.34631574 -0.27626902
0001a0 a8 5b cb be a5 3c 65 be 8a 70 02 bf 1b 20 bb be
       -0.39718366 -0.22386415 -0.5095297 -0.36547932
0001b0 f3 3f ce 3e 60 1b 04 3f 81 11 df be 67 2b a7 3e
       0.40283164 0.5160427 -0.43568042 0.326503
0001c0 7c 9a 11 bf 03 5b 03 bf 21 40 c3 be 81 aa 9d 3e
       -0.5687635 -0.5131075 -0.38134864 0.30794147
0001d0 0b e1 09 bf 55 4c a7 3e e4 35 81 3e 48 d6 00 3f
       -0.53859013 0.32675424 0.25236428 0.5032697
0001e0 40 06 ee bd ab 72 92 be 7c c3 c3 3d 8b ff a3 3e
       -0.11622286 -0.2860311 0.0955877 0.320309
0001f0 19 fb b8 be 60 3b aa be 91 ee e8 3e af e8 04 3f
       -0.36129072 -0.33248425 0.45494512 0.51917547
000200 67 70 b4 be 22 06 a8 3e 6c 5d e8 3e 7e 31 a3 be
       -0.35242006 0.3281718 0.45383775 -0.31873697
000210 10 5b c1 be b2 39 e4 be 0d e8 ce be 68 fa 82 3d
       -0.37764788 -0.44575268 -0.40411416 0.063954175
000220 3d be 03 bf 98 60 0a 3f 4f 38 09 bf 82 a2 d3 3e
       -0.51462156 0.5405364 -0.53601545 0.4133492
000230 82 dc db be d1 b8 bb be 8d 9d e0 be 0e 8d dd be
       -0.42941672 -0.3666444 -0.43870202 -0.4327168
000240 7f 51 f8 be 90 e8 01 3f 8e af 07 bf 1e c0 b4 be
       -0.48499677 0.5074549 -0.5300225 -0.35302824
000250 2e 7e 0a 3f 47 2f d1 be aa 01 f0 3e a0 bc d7 be
       0.54098785 -0.40856382 0.4687627 -0.42136097
000260 4b 2c d4 be c7 d6 a6 be 8b 78 f0 3e c2 93 e5 be
       -0.41440043 -0.32585737 0.46966967 -0.44839293
000270 2c cf 4a 3e f9 a3 03 3f 23 e2 cc be 98 a0 ba 3e
       0.19805592 0.5142208 -0.4001628 0.36450648
000280 86 d5 0f 3d a1 2b 79 3e a8 19 fa 3e 69 ab 8a 3e
       0.03511574 0.2433305 0.488477 0.270839
000290 3e 0a a2 be ad 35 c3 be 0d fb ba be 64 51 ab be
       -0.3164844 -0.3812689 -0.36519662 -0.33460534
0002a0 b3 d7 cc be 0a cd d7 3e 66 58 89 be 93 95 c8 be
       -0.40008315 0.4214862 -0.26825255 -0.39176616
0002b0 5e 35 a4 3e 20 10 a0 be 27 57 c5 be f3 9a a6 be
       0.32071966 -0.31262302 -0.38543054 -0.32540092
0002c0 92 1a 0d 3f 1f 32 9c 3e 25 77 e8 3e 8b 49 54 3e
       0.5511867 0.3050699 0.454034 0.2073118
0002d0 d5 31 df be 5d 59 04 bf 69 7e 93 3e 70 be 00 bf
       -0.43592706 -0.5169886 0.2880738 -0.50290585
0002e0 0f 12 f3 3e f2 2b 64 3e ec dd e0 3e d1 f7 11 3f
       0.47474715 0.22282389 0.43919313 0.5701876
0002f0 50 f2 bd be b6 cf 96 3e 46 19 bc 3e 24 1b 83 3e
       -0.37098932 0.29455346 0.36738032 0.25606644
000300 f4 46 05 3f 69 55 05 3f bb 8d 08 bf e9 38 9e 3e
       0.5206139 0.5208345 -0.53341264 0.30902794
000310 78 b2 bf be 8c 9b ee 3e 6c e7 12 3f a1 c7 c9 be
       -0.37440848 0.46603048 0.5738437 -0.39410117
000320 57 8f 76 3e 28 d0 9f be db a3 b3 3d d0 79 f1 be
       0.24078117 -0.31213498 0.08771487 -0.47163248
000330 17 2e 19 bf f6 7d f3 be 78 31 0c 3f 5e 70 02 bd
       -0.5983595 -0.47557038 0.54762983 -0.031845443
000340 c4 db 8a 3e 15 ac 06 3f d3 c7 ac 3e d8 2d 0d 3f
       0.27120793 0.52606326 0.33746204 0.55148077
000350 d4 69 f2 3e 2a e5 15 bf 78 02 0e 3f c6 b3 18 bf
       0.47346365 -0.585528 0.55472517 -0.5964931
000360 39 98 ae be d7 b3 70 be 8a 0c c2 3e 52 4f dc be
       -0.34100512 -0.23506103 0.37900192 -0.43029267
000370 29 aa 49 3e fa 07 05 be ef e8 95 3e ff ee 1c 3c
       0.19693817 -0.12991324 0.29279277 0.0095784655
000380 48 60 0b bf 2c 82 7c 3e e2 9d ce bc 60 13 fc be
       -0.5444379 0.24659032 -0.025221769 -0.49233532
000390 f7 cd fa be 3b a4 c2 3e cb 04 d5 3e ea d8 ca be
       -0.48985264 0.38015923 0.4160522 -0.39618617
0003a0 38 70 15 3f 1d e2 ed be cf 2e b5 3e 47 1c e4 be
       0.5837436 -0.46461573 0.35387275 -0.44552824
0003b0 57 90 d2 be 8c 80 16 3f 04 e5 e1 3e a1 95 e9 3e
       -0.41125748 0.58789897 0.44120038 0.4562197
0003c0 74 be 03 3f 66 ad 0d bf ee 1c e4 be 96 96 eb be
       0.51462483 -0.5534271 -0.44553322 -0.46013325
0003d0 f1 a6 05 3f 41 8c 92 be ba d2 a5 3e ee de 4c 3e
       0.5220786 -0.2862263 0.32387334 0.20006916
0003e0 ec b6 a6 be 7b d4 18 bf c5 7b bf 3e 5d 72 04 be
       -0.32561433 -0.5969922 0.37399116 -0.12934251
0003f0 c5 7d 9d 3e 03 99 7b be 45 ef 21 bf d1 17 18 bf
       0.30760017 -0.24570088 -0.6325572 -0.5941134
